src/rating/model.pth (torch, 140213 bytes, 13 tensors)

mlp.0.weight f4 [64, 512]
00000000: e3ae 1ebd 936a 303d a669 cdbb 6038 1bbd
00000010: 6eed 6abc 3fd1 c3bc bb44 e93b 1d47 2fbd
00000020: 39d1 a5bc ed17 033c 9802 e0bc aab1 103c
00000030: f4c0 00bc a51c f8bc 22e5 8d3c c921 bc3b
00000040: e4e0 173d f140 0cbd 10fa fd3c 4e71 07bd
00000050: bf58 353c fb51 b0bc 2fba cc3c 5347 0fbd
00000060: 037f 813c d16c f9bc be60 c4bb ac06 f5bc
00000070: 734b f2ba 6afa 30bd 9682 4ebc 1d2c e63c
00000080: af22 1e3d 906f 9bbc 464c 923c 5e1f de3c
00000090: 4d0f e33b df0b 9dbc 75f7 babc c7b0 593d
000000a0: 663a bdbc 22ca 2dbd eaa3 e9bc 6600 8c3b
000000b0: 7c7f f13b 91f9 08bd 8af2 a2bc e3c6 373d
000000c0: 1da5 89bc f0cd 593c 36c7 bd3a 8237 82bc
000000d0: 8778 2a3b fe1a 6b3d 9c7a 4dbd a117 0dbc
000000e0: ce2e 16bb 51f7 073d 3b5d 15bd 3b9b 7fbc
000000f0: c0cf 9dbc 30ea 293d 5d43 bcbc aeaa 4abc
00000100: 5c99 3a3d a8f7 b2bc 3610 8bbc e249 e8ba
00000110: 5a3b 103c 58fa afbc 0db2 0ebd 68c2 02bc
00000120: 8f89 123b 1435 283c 6766 1fbd 50ca 083c
00000130: 8044 d1bb cbea 77bc b228 50bc f06f 38bc
00000140: 5bd0 51bc 17ae 87bd 9c96 eabc 7886 113b
00000150: 79fa 163a bd7d b9bc 15b1 9d3c 0c24 1d3d
00000160: 71e3 77bc 6b08 54bc a4cf e63c 2cb9 51bd
00000170: d342 bcbc 13d7 ba3c c1bd 6fbd 8b5d 0b3d
00000180: f506 3d3c 060e e43c 1057 12bc 49b8 903c
00000190: f63a 1e3d 812f 2cbd 7cc0 a83c 85e4 56bc
000001a0: 5004 34bd 78f6 e33b 6050 73bc 1132 243c
000001b0: fc3c 38bd 502a 14bd dfc4 78bc ca1c 05bc
000001c0: 3bc0 00bd e088 68ba c26b 9f3b ebde 14bd
000001d0: b503 9cbc 536f b43c 21f5 4dbc 5d5d 7bbc
000001e0: e34c 6bbc cc88 be3c 109c 13bd 54cd d9bc
000001f0: 8af4 33bd a84f 48bd c217 92bc 296b c6bc
00000200: b6c5 e93b 1579 303d 9949 0cbc ca77 3fbd
00000210: f76e ad3c 27cd b13a 08ca 583c 4cb9 d7bc
00000220: 76f3 69bc e995 a9bc cb6e 283c bbac 8c3a
00000230: fab2 843c 3df4 93bc 6728 5f3d 4243 603c
00000240: 3de0 ed3c efa3 303d bdcd 7dbc 8427 b3bc
00000250: 3ca0 20bd 3a24 47bc 25a9 1dbc 3924 1a3d
00000260: c7fa 61bc f931 d1bb 338a 703c ae78 8abc
00000270: c94a 50bd 7d98 0abd 2188 aabc 4bac fabc
00000280: 4811 e03c 94e6 003b 4796 07bd bce2 05bd
00000290: fe61 44bb 7a8d 373d ec45 e5bb a7bd b83a
000002a0: 89af 1dbd face 38bc a88f b7bc 9e4c 1fbd
000002b0: a163 a1bc 4f52 b5bb 721d 9e3c 34a7 ec3c
000002c0: 7b10 4f3d e115 0cbd c855 0cbd 8efb ea3c
000002d0: 0491 073c 95d9 6e3c 11b1 513c 34bf e9bc
000002e0: 0049 73bc bd4a 97bc 681d e23b 6a3a d1bc
000002f0: 4e13 253a c2ab e7bb 9da0 90bb e19a 17bd
00000300: 406a 003d ee5e eaba 8997 be3c 5c52 453d
00000310: 3782 69bc a486 c4bc e273 d0bc 5e48 31bc
00000320: 9a56 893c c3a8 1abd 563e 08bd 046e eeba
00000330: e8ad 123d e9ab d5bc 3312 c1bc 2ee4 1ebc
00000340: 1156 153c 96ee 62bd ed48 febc 0010 113d
00000350: 0426 70bc 79c6 963c 4024 ec3c 97fe 26bd
00000360: 7570 303d a9f1 d73c 53da a73c 300e 883c
00000370: 1d80 733c 93d7 4c3d b31d 323d 6d1c 273d
00000380: 8513 91bc 1dd9 183d e7f5 3fbd cdd1 0bbd
00000390: 8632 d33c 2362 4abc 87cf 43bc ef31 ee3c
000003a0: 4858 d13b 1189 08bc 0f10 b3bc 1ce2 86bc
000003b0: a29f 26bd bd87 943b 28f7 db3c c7cf d83c
000003c0: ba59 c2bc 0906 8fba 8786 56bc 121c b53c
000003d0: aa1c c43c 900e 973c 3828 d5bc 4928 b23c
000003e0: 41cd 91bb 4c7a 0abc 76c0 7f3d f3b3 593c
000003f0: 3a0f b6bb 9348 15bd 4551 1d3c 9441 eabc
-0.038741004 0.043070387 -0.006268698 -0.03789556 -0.014338834 -0.023903487 0.007118789 -0.04279243
-0.020241367 0.00800131 -0.027344987 0.008831421 -0.007858504 -0.030287096 0.017321173 0.005741332
0.037079707 -0.03424162 0.031003028 -0.03306704 0.011068522 -0.021523466 0.024991123 -0.03498013
0.015807634 -0.030447396 -0.005992978 -0.029910408 -0.001848562 -0.043207563 -0.012604376 0.028097207
0.038607296 -0.018974096 0.017858636 0.027114566 0.006929314 -0.0191707 -0.022823075 0.053147104
-0.023099136 -0.042429097 -0.028520543 0.0042725084 0.0073699336 -0.03344113 -0.019891042 0.044867408
-0.016802365 0.013293728 0.0014478925 -0.015895609 0.0026011781 0.05739879 -0.050165758 -0.008611591
-0.0022916081 0.033194844 -0.036465865 -0.015600975 -0.019264102 0.041483104 -0.02298134 -0.012369795
0.04555641 -0.021846607 -0.016975503 -0.0017722214 0.008803213 -0.021481678 -0.03483777 -0.00798092
0.0022359823 0.010266561 -0.038916018 0.008349016 -0.0063863397 -0.015131663 -0.012705015 -0.011257157
-0.0128060235 -0.06625002 -0.02863627 0.0022205394 0.0005759369 -0.022642964 0.019249478 0.038364455
-0.01512991 -0.01294146 0.028175183 -0.051201984 -0.022981083 0.022807634 -0.058530573 0.034024756
0.011537303 0.027838718 -0.00893189 0.017665999 0.03863045 -0.04203749 0.020599596 -0.013116007
-0.043949425 0.0069568716 -0.014850706 0.010021702 -0.044980034 -0.036173165 -0.0151836565 -0.00812454
-0.031433325 -0.00088704936 0.0048651407 -0.036345404 -0.019044736 0.02202574 -0.01257065 -0.015342084
-0.014361593 0.02325859 -0.036037505 -0.026587166 -0.043934382 -0.04890409 -0.017833594 -0.02422102
0.0071341647 0.043084223 -0.008562469 -0.0467451 0.021171076 0.0013565168 0.013231762 -0.026333474
-0.014279237 -0.020701366 0.010280321 0.001073263 0.016198624 -0.018060798 0.05448189 0.0136879105
0.02903759 0.04312509 -0.015490946 -0.021869428 -0.03921531 -0.012154633 -0.009622847 0.0376322
-0.0137927 -0.006384131 0.014681387 -0.016903248 -0.05085257 -0.03383683 -0.020816864 -0.030599734
0.02735199 0.0019668685 -0.0331023 -0.032686934 -0.0029965634 0.044812657 -0.0069968607 0.0014094607
-0.03849748 -0.011279816 -0.022407368 -0.038891427 -0.019700827 -0.0055334936 0.01930115 0.028888322
0.050552826 -0.034200553 -0.034261495 0.028684404 0.0082743205 0.014578243 0.012798564 -0.028533556
-0.0148489475 -0.018468255 0.006900478 -0.02554055 0.0006297127 -0.0070700357 -0.004413678 -0.03701294
0.031351328 -0.0017881074 0.023265617 0.048174247 -0.014252237 -0.023989983 -0.025445882 -0.010820476
0.016764928 -0.0377586 -0.033262573 -0.0018190746 0.03581038 -0.02608295 -0.023568248 -0.009697957
0.009114758 -0.055403315 -0.031040633 0.03541565 -0.014657501 0.018405186 0.02882588 -0.04077014
0.043075997 0.02636035 0.020489847 0.016608328 0.014862088 0.050010275 0.043485355 0.040798593
-0.017709503 0.03731643 -0.04686537 -0.03413563 0.025780927 -0.012352499 -0.011951334 0.029076545
0.006388698 -0.00833346 -0.021858243 -0.01646524 -0.04067958 0.004532783 0.026851252 0.026466263
-0.023724426 -0.0010911833 -0.013093597 0.022108112 0.02393945 0.018439561 -0.026020154 0.021747725
-0.004449517 -0.008452009 0.062439404 0.013287532 -0.0055560144 -0.036446165 0.009601896 -0.028595723

mlp.0.bias f4 [64]
00000000: 182d 1a3d 3b6b 6ebb 57f2 2bbd 4d1b 033c
00000010: 2421 bf3c 8430 c83c 7bb6 28bd 920d 04bd
00000020: aa50 cd3c 8596 eabc 7a1c 4f3a 5682 8fbb
00000030: 7d3c 28bc 48d0 433c f48b 193c c4b8 a23c
00000040: 7582 b83c 813b e5bc 7724 083c 5c61 00bd
00000050: a0a9 833c 447f d53c d52c 87bc d3d7 eebc
00000060: 64b0 2e3d e0ac c0bc 126f 07bd 6829 d83c
00000070: bc18 ff3c 6ca2 923c 2b15 0a3d ac98 14bb
00000080: c72d 94b9 f5c7 02bd 2f12 103c 7e15 4a3b
00000090: e208 27bd b470 0e3d b4df c9bc bd82 953c
000000a0: bb1d 78bb 6896 b2bc 6e15 d5bc 7681 6c3d
000000b0: 3430 acbc ed4f 1fbd 3f75 bebb 6faa b7bc
000000c0: 7861 e63c 13ac c23c 1d78 203d fea9 013d
000000d0: 343b 80bc 83a9 d1bc 8409 10bc 842c 0abd
000000e0: 67e1 01bc 52ea 0abc ffc4 41bc 7fe8 b8bc
000000f0: a099 e3bc 87a2 18bd 2875 ec3c 0377 ffbc
0.03764066 -0.0036379832 -0.04197916 0.0080021145 0.023331232 0.024437197 -0.041189652 -0.032239504
0.025062878 -0.028636226 0.00079006667 -0.004379551 -0.010268328 0.011951514 0.009371746 0.019863494
0.022523144 -0.027982475 0.008309475 -0.03134285 0.016072094 0.026061662 -0.01650087 -0.029155647
0.042648688 -0.023519933 -0.03306491 0.026386932 0.031139724 0.017899714 0.033711594 -0.0022674007
-0.00028262867 -0.031928975 0.008793398 0.0030835564 -0.040779956 0.03477545 -0.024642803 0.018250817
-0.0037859518 -0.021800235 -0.026011195 0.05774065 -0.021019079 -0.038894583 -0.0058123167 -0.022420136
0.028122649 0.023763692 0.03917705 0.031656258 -0.01565323 -0.025593525 -0.008791331 -0.03373386
-0.007927275 -0.008478718 -0.011826753 -0.0225718 -0.027783215 -0.037264373 0.028864458 -0.031184679

mlp.2.weight f4 [64]
00000000: 81a0 7d3f 6b21 823f 08b9 7f3f 73d9 7b3f
00000010: fe57 7c3f 5ef6 7e3f 0000 803f 0000 803f
00000020: 4bf9 803f cb5c 7f3f 9a4c 7f3f a1bb 7d3f
00000030: fd03 7a3f 0048 7c3f 0c88 7e3f bc9f 7e3f
00000040: bad3 7f3f b08e 813f 50dc 7f3f 69de 7f3f
00000050: 4234 823f af1e 793f 60ec 803f 5ea4 803f
00000060: befd 823f 0000 803f ac44 813f 73ea 803f
00000070: 8522 823f 4522 853f e244 6f3f b0ba 7f3f
00000080: 920e 7f3f 7683 803f 2e43 7a3f c400 753f
00000090: 0000 803f feea 793f 5ac7 7f3f cf6b 7d3f
000000a0: e015 7e3f b8db 7e3f 0000 803f 897e 7d3f
000000b0: 4442 823f 3722 813f 5a28 7c3f 128a 7f3f
000000c0: ed73 823f 6fa3 773f 2fdd 853f 9e20 7c3f
000000d0: 3028 863f da1f 7d3f f67f 833f 808c 7e3f
000000e0: 2cf9 763f 4f13 843f 6d39 853f b439 823f
000000f0: 33b1 7f3f 0000 803f e6d9 7a3f 0000 803f
0.99073035 1.0166448 0.9989171 0.98378676 0.98571765 0.99594676 1.0 1.0
1.0076078 0.99750966 0.9972626 0.99114424 0.97662336 0.98547363 0.9942634 0.99462485
0.99932444 1.012167 0.99945545 0.99948746 1.0172198 0.97312444 1.0072136 1.0050161
1.0233686 1.0 1.0099082 1.0071548 1.0166785 1.0401083 0.9346448 0.9989424
0.9963161 1.0040119 0.9775876 0.95704293 1.0 0.97624195 0.9991356 0.9899263
0.9925213 0.99554014 1.0 0.990212 1.0176473 1.0088567 0.9849907 0.99820054
1.0191628 0.96733755 1.0458125 0.9848727 1.0481014 0.98876727 1.0273426 0.99433136
0.96473956 1.0318393 1.040815 1.017386 0.9987976 1.0 0.97988737 1.0

mlp.2.bias f4 [64]
00000000: af5a dbbb 4511 a6bc 4803 3b3a 1a6c 4abd
00000010: ec37 3dbc 6c81 f63c b9d9 5d3d f127 52bd
00000020: 4552 a4bd 896a 433c 49b4 03bd 045e 12ba
00000030: d55d ac3c 5ceb 18bd 8036 d43a a302 63bc
00000040: b95b afbc 007f 923b 720a 49bd 8f46 013d
00000050: 39b2 f5bb cc91 58bc 00f7 413c d366 583c
00000060: e5ca 58bd a5dc 07bd 865a e83c 77c0 343d
00000070: 340c 213c 50b0 81bd db55 4abd 8d82 f4bc
00000080: e328 1abd e719 5dbd 6af8 e93c d6f4 eb3a
00000090: 1c7b 61bd 46e5 523d 30b2 e43c 3672 af3c
000000a0: 4f75 8c3c a7ac 463c 3fc9 af3c 0999 cebc
000000b0: 73eb 8a3d 872d 243d 10cc ef3c 10b4 90bc
000000c0: bb44 2dbd 7c28 3b3d b7c4 323d 72ac 9dbc
000000d0: 6c42 8fbd 00d1 25bd b61e 7d3d d4d8 7dbc
000000e0: 6ee0 333d 97d1 5c3d f877 773d ecf6 3a3d
000000f0: f2f2 023d e1f4 35bd d1f3 f6bc f830 663c
-0.00669416 -0.020271907 0.0007133973 -0.0494195 -0.011548977 0.03009101 0.054162715 -0.051307622
-0.08023504 0.011927255 -0.032154355 -0.00055834674 0.021040836 -0.03733383 0.0016190559 -0.013855609
-0.021406041 0.004470706 -0.049082227 0.03156143 -0.0074980524 -0.013218354 0.011838675 0.013208109
-0.05292787 -0.033169407 0.028363477 0.04412886 0.00982957 -0.06332457 -0.049398284 -0.029847408
-0.03763665 -0.05397978 0.028560836 0.0018002044 -0.055049047 0.051488183 0.027916998 0.021416765
0.01714578 0.012126124 0.021458266 -0.025219457 0.067831896 0.04008248 0.02927211 -0.017663985
-0.042301875 0.045692906 0.043644633 -0.019247267 -0.06995091 -0.04048252 0.061796866 -0.01549359
0.043915205 0.053910818 0.060417145 0.04564564 0.031969972 -0.044422988 -0.030145558 0.014049761

mlp.2.running_mean f4 [64]
00000000: dc0d 1d3d 15d3 ac3c 0400 0000 ce37 183d
00000010: f212 403c 915f 243a 0000 0000 0000 0000
00000020: 0ae6 8a3d 0400 0000 6fa4 343d 0400 0000
00000030: 0400 0000 c0a8 423d f57a 063c fd1a b23c
00000040: 6e28 303d a606 3639 9680 333d 0400 0000
00000050: 5606 8f3b 7148 7d3d 0400 0000 b1b6 5139
00000060: da3c a93d 0000 0000 0400 0000 3ea7 8d3b
00000070: f146 a93c 5a8a 853d 313a 963d 72c7 643c
00000080: 0400 0000 daab 3f3c d685 c53b d9b3 013d
00000090: 0000 0000 b6ac 553d 0400 0000 c3bc 503d
000000a0: 0400 0000 0400 0000 0000 0000 bf22 d43d
000000b0: 3d73 1c3a b258 263c ad9b 123d 0346 d70d
000000c0: 0978 863d cd41 e23c 898f e43c a390 4a3d
000000d0: 6d45 303d d4ce ed3b cbd2 323b a48c f23c
000000e0: 3ab2 5239 14da a13b 6b75 bd3a 31d2 053a
000000f0: 0400 0000 0000 0000 7627 5c3d 0000 0000
0.038343295 0.021096746 6e-45 0.037162594 0.011723267 0.0006270344 0.0 0.0
0.06782158 6e-45 0.04410213 6e-45 6e-45 0.047524214 0.008208026 0.021741385
0.043007307 0.0001735935 0.0438238 6e-45 0.004364769 0.061836664 6e-45 0.00019999851
0.0826356 0.0 6e-45 0.0043229153 0.02066371 0.06520529 0.07335318 0.013963567
6e-45 0.011698687 0.0060279174 0.031665657 0.0 0.052166663 6e-45 0.050961267
6e-45 6e-45 0.0 0.1035819 0.00059680996 0.010152983 0.035792995 1.3267253e-30
0.06565864 0.027619267 0.027900474 0.049454343 0.04303496 0.007257322 0.0027286287 0.029608078
0.00020093555 0.004939327 0.0014454549 0.00051048683 6e-45 0.0 0.05374857 0.0

mlp.2.running_var f4 [64]
00000000: dd2c c239 5500 8739 0400 0000 7e50 b339
00000010: 1b02 3839 68d9 9437 0400 0000 0400 0000
00000020: 309d ba39 0400 0000 8bb2 9d39 0400 0000
00000030: 0400 0000 5a5c a539 f3fa fd38 a2ce 6f39
00000040: 36a1 b739 5e9f 4a37 8ea1 9939 0400 0000
00000050: a648 aa38 661a c039 0400 0000 4c95 ff36
00000060: 99ca b739 0400 0000 0400 0000 4f37 b338
00000070: b43c 7b39 9dbb bf39 a930 bf39 ebb0 6939
00000080: 0400 0000 1cd7 4339 8e1e e538 a4d3 4f39
00000090: 0400 0000 8fe8 bd39 0400 0000 3232 8f39
000000a0: 0400 0000 0400 0000 0400 0000 a53d d239
000000b0: f5a9 1f37 b368 3c39 c14b 9a39 a825 790a
000000c0: a596 a839 023e 6139 bfc2 9439 8d62 9e39
000000d0: 6408 d939 ff92 1c39 ee93 5138 eb9b b939
000000e0: 0abc 6f36 6a77 e738 e55b 0938 121e 8837
000000f0: 0400 0000 0400 0000 e0d8 de39 0400 0000
0.0003703599 0.00025749454 6e-45 0.00034201512 0.00017548392 1.7744213e-05 6e-45 6e-45
0.00035593798 6e-45 0.00030078398 6e-45 6e-45 0.0003154006 0.00012110723 0.00022869793
0.00035024591 1.2077244e-05 0.00029302802 6e-45 8.1197635e-05 0.00036640762 6e-45 7.6169727e-06
0.00035055427 6e-45 6e-45 8.545687e-05 0.00023959839 0.00036570142 0.00036466614 0.00022286519
6e-45 0.00018676784 0.00010925262 0.000198199 6e-45 0.0003622216 6e-45 0.00027312484
6e-45 6e-45 6e-45 0.0004010025 9.51671e-06 0.0001796808 0.0002942961 1.1995996e-32
0.00032155696 0.00021480772 0.00028373857 0.00030209534 0.00041395717 0.0001493208 4.9967253e-05 0.00035402118
3.5723228e-06 0.00011037181 3.274893e-05 1.6226466e-05 6e-45 6e-45 0.00042504724 6e-45

mlp.4.weight f4 [8, 64]
00000000: 5f75 8a3d 6991 efbc a520 96bd ec7f cc3b
00000010: 1f72 d6bd 5e87 aa3d c858 153e e960 b8bd
00000020: ff0b 37bd 6560 c33d e62f df3d 8163 afba
00000030: 29e5 a73d 8fd8 193c 4cde 39bd 876e 223d
00000040: 9d75 26b9 3fa5 013b 6d7d 873d 1ca1 4cbd
00000050: a2be 03bd fbb9 663d 6fc4 cebd 9e51 5ebd
00000060: 4599 b3bd 8933 b1bd 038b 6dbd 843a 933d
00000070: 9149 bc3c 0cc2 77bd 4be8 22bd bcd5 013e
00000080: ef62 d3bd 12c9 f0bc 5891 86bd 6a29 1bbd
00000090: b170 b23d ad70 49bd 4f42 c8bd 579b bbbc
000000a0: b8ab d3bd 8405 4d3d 9f3e 5cbd 1f62 a23d
000000b0: 9c27 7f3c 64c4 cebd 4461 1c3d 25e9 91bd
000000c0: 19a2 013d 6b55 8bb9 90c7 043e 4739 a8bd
000000d0: fa7f f0bd 2e4f 89bd 2f4c 1a3e ba3e 293c
000000e0: 6566 9cbd 11f6 a83d e9c6 0e3e 04ba 053d
000000f0: c45b a33d 6f3b dcbd dbb9 4bbd 7fbb ccbd
00000100: 5f9e 84bd c0ac b4bd 0da2 bfbc c9c1 373d
00000110: 0336 243d 55e1 803d 02d4 a1bd 4955 abbb
00000120: 3b2b 2abe c66c f13d 1e67 93bd 874b f4bc
00000130: a2ee 803d 4f67 2ebd c2bb a2bb dc6c 163a
00000140: 189d 08bd e155 653c 9bd2 90bd 665f e13d
00000150: 106e 2dbd d140 eabc 1a5d 9abd e8f0 0b3d
00000160: ff8f f3bc 0e5b 23bd 9ace d9bc f89c af3c
00000170: 94bc e43c 6d1c 82bd a324 c6bd e843 a33d
00000180: acc0 83bd 5b2d 7bbd 429d bf3a 7bfa 8f3d
00000190: e50c d3bd 8f90 cbbc 4de1 f33c 274a 36bd
000001a0: 67cc bd3d 73b3 4d3d 0cc6 1a3e f938 c8bd
000001b0: f21a 403d 1f7d 633c e4e1 023e 3fbb 6cba
000001c0: e2e5 03be cad8 9d3c 9f23 573d d111 533d
000001d0: 0308 bfbd a907 143d e893 013e 7c01 183d
000001e0: 6991 123e 11de 903d c391 ac3d 0153 df3d
000001f0: dfc2 373e 0da8 133d 889a 803d d782 97bd
00000200: 19b3 a9bd 0127 08be 2098 b83d 1008 703c
00000210: 34a4 ba3b d86d a3bd f706 e23c 0bf2 0cbe
00000220: a1ea bcbd 84d8 37bd 0a5a 1c3d dd24 bc3d
00000230: 6df0 8d3d 9d30 16be 427c 5cbd 76b5 9c3d
00000240: 7b08 8fbd 92a2 3d3d 63f5 d9bd 9193 6d3d
00000250: e2fe a3bc 647f 81bc 6b91 fa3d b9f8 17bd
00000260: 2aab d7bd ac37 af3d a6b0 56bc 8790 b4bc
00000270: b66e 2cbd e405 01be ef37 4ebd a446 823d
00000280: d80c cabd 0936 18be 583c 7bbd 215b 843d
00000290: b8a4 bebd e474 523c dd00 aa3d 0e92 2c3d
000002a0: 5db9 973c 2556 98bd e58c eabd bed1 afbd
000002b0: 4901 633d ca47 c63d 9864 5b3d 1978 01bd
000002c0: ca9d 18be bb2b 32bd c785 a4bd 3b83 0a3d
000002d0: 6582 c0bd 8103 99bc b8bd 0f3e 7c2c bebd
000002e0: d826 56bd a3c8 b73c e56c d7bc 2d0d 7d3d
000002f0: 6738 983d bcb6 8cbd 1cb9 85bd 7d44 763d
00000300: f0a2 35bd 67da 883d d170 c13d 7c29 01be
00000310: 8ae9 24bb a87f 913d d690 ae3d 3df0 69bc
00000320: 39fc 01be d928 a2bd b08f 1abd e1d4 203d
00000330: aefa 303d 1c3e 9cbd 3b29 bb3d 3f21 b3bd
00000340: f980 f2bb 4e6d aa3d 9fb2 81bd b229 ea3c
00000350: b0dc 5f3d 7aaf 753c 98d3 033e e799 af3c
00000360: 1ca0 8abd 374a 433d d644 90ba bddd 2fbc
00000370: e3c3 453d ac59 a3bd 82cc debb 79cd e7bd
00000380: d525 663d b7b9 82bd 66a2 d83d 4c4e 9fbc
00000390: f2f5 dcbc 8e85 e43d 4a3e d53d d176 643d
000003a0: 29e6 55bc 1da3 16bd f0a9 f93d e8a7 c0bd
000003b0: acfa 713d 3f08 103e ba44 9fbd d9d2 56bd
000003c0: 8bfe b13c 409c a13d ccf3 11bd 2a37 7ebd
000003d0: 0c92 87bc f474 debd e99f 933b 3175 d4bd
000003e0: 81df 1dbd 27c1 1b3d b034 e43c 6339 5cbd
000003f0: b762 00bd 3ef3 0bbe 3507 75bd 2cb5 d63d
0.06760668 -0.029244142 -0.07330445 0.0062408354 -0.104709856 0.083266005 0.14584649 -0.09002859
-0.044689175 0.0953987 0.10897808 -0.0013381095 0.08198006 0.0093900105 -0.045378014 0.03965619
-0.00015874808 0.0019782332 0.0661572 -0.049958333 -0.032164223 0.05632971 -0.100960605 -0.054277055
-0.08769468 -0.08652408 -0.0579939 0.07188895 0.022984298 -0.060487792 -0.039772313 0.1267919
-0.103216045 -0.029392753 -0.06570691 -0.037881292 0.087129004 -0.04917972 -0.09778272 -0.02290122
-0.10335487 0.05005409 -0.053770658 0.07928871 0.015573408 -0.10096052 0.038178697 -0.07124547
0.03164873 -0.00026575787 0.12966752 -0.0821405 -0.117431596 -0.067045555 0.15068124 0.010329897
-0.07636718 0.082500584 0.13943066 0.0326481 0.07976487 -0.107535236 -0.049737792 -0.099966995
-0.064755194 -0.08822012 -0.023392702 0.044862542 0.040090572 0.06292979 -0.079017654 -0.0052286726
-0.16618054 0.11788325 -0.071974024 -0.02982117 0.062955156 -0.04257899 -0.00496623 0.0005738267
-0.03335294 0.013997526 -0.0707142 0.11004524 -0.042341292 -0.02859536 -0.07537289 0.034165293
-0.029731749 -0.03988176 -0.026587773 0.021437153 0.027921952 -0.06353078 -0.09674957 0.079719365
-0.064332336 -0.06132255 0.001461901 0.07030197 -0.10305194 -0.024849204 0.029770518 -0.04450431
0.09267502 0.050219964 0.15114611 -0.09776492 0.046900697 0.013884812 0.12781483 -0.00090305874
-0.12880662 0.019268412 0.052524205 0.051530663 -0.093277 0.036140118 0.12654078 0.03711079
0.14313282 0.07073606 0.08426239 0.109045036 0.17945431 0.036048938 0.062794745 -0.073980026
-0.08286113 -0.13296129 0.090133905 0.01465036 0.005695844 -0.079799354 0.027591212 -0.13764207
-0.092244394 -0.04488422 0.038171805 0.091867186 0.06930623 -0.14666982 -0.05382944 0.076517984
-0.069840394 0.046297617 -0.10642507 0.05800206 -0.020018999 -0.015807815 0.122347675 -0.037102435
-0.10530694 0.085555404 -0.01310364 -0.022041572 -0.04209777 -0.12599903 -0.05034631 0.0636113
-0.09865731 -0.14864363 -0.061336845 0.06462694 -0.09308761 0.012845252 0.08300946 0.042131476
0.018521005 -0.07438306 -0.11452655 -0.08584927 0.055421147 0.096816614 0.05356273 -0.031608675
-0.14903942 -0.043498736 -0.080333285 0.033816557 -0.09399871 -0.018678429 0.14037216 -0.092858285
-0.052283138 0.022434538 -0.026297042 0.061780144 0.07432633 -0.06870791 -0.065294474 0.06012391
-0.044344842 0.06682282 0.09445346 -0.12613481 -0.0025163614 0.071044266 0.08523719 -0.014278469
-0.12693872 -0.07917947 -0.037734687 0.039265517 0.043207817 -0.07629034 0.091387235 -0.087465756
-0.0074006286 0.083216295 -0.063328974 0.028584335 0.054653823 0.01499545 0.12873685 0.021435691
-0.0676882 0.0476782 -0.0011006843 -0.010734019 0.048282515 -0.07976088 -0.0067992816 -0.11318488
0.056188423 -0.063830785 0.1057785 -0.019446515 -0.026972745 0.11158286 0.10412271 0.055777375
-0.013055363 -0.03677665 0.12190616 -0.094070256 0.05907695 0.14065646 -0.077767804 -0.052447174
0.02172782 0.078911304 -0.035632893 -0.062064327 -0.016549133 -0.10862151 0.0045051468 -0.10373915
-0.038543228 0.038026 0.027857155 -0.053765666 -0.03134414 -0.13667008 -0.059821326 0.104837745

mlp.4.bias f4 [8]
00000000: 1d58 983d eab4 283d 3221 5e3d 8580 163e
00000010: 9fa0 d53d 2316 c43c 0b0d 833d c9e9 71bd
0.07438681 0.041188158 0.054230876 0.14697464 0.10431027 0.023936337 0.06398972 -0.059060846

mlp.6.weight f4 [8]
00000000: d614 2b3e 1f63 9e3e 5856 143e 7e4d 723e
00000010: 4a62 2e3e a16e 2a3e 2f33 d73d 92cc 8a3e
0.16707167 0.30934998 0.14486063 0.23662373 0.17029682 0.16643764 0.10507809 0.271092

mlp.6.bias f4 [8]
00000000: b225 453f 5e64 57bf 3dff 273f bcec 3ebf
00000010: 77d2 3b3f b37e 393f 25a0 293f d174 43bf
0.77010643 -0.84137523 0.6562384 -0.7457998 0.7336802 0.7245895 0.66259986 -0.7635012

mlp.6.running_mean f4 [8]
00000000: c066 c23e 0dc9 e13e 0cdc ec3e 64ea 023f
00000010: 28d3 af3e a37a c73e ee7f ec3e 7b4e e03e
0.37969017 0.44098702 0.46261632 0.511389 0.34340787 0.38960752 0.46191353 0.43809876

mlp.6.running_var f4 [8]
00000000: e3c3 c63e c57a f83e 0189 003f 8ab8 0b3f
00000010: 0498 a03e c7ba d23e 5da4 da3e 8c62 183f
0.38821325 0.48531166 0.5020905 0.5457846 0.3136598 0.41158125 0.42703524 0.5952537

mlp.8.weight f4 [1, 8]
00000000: 562c 953e e8b5 75be de9e b23e f179 93be
00000010: f7fa 9c3e 1186 9e3e ffa3 b53e 6636 8cbe
0.29135388 -0.23995173 0.3488683 -0.2880397 0.3066022 0.3096166 0.35476682 -0.27385253
